SRCNN_lr_0.0001.pt (torch, 278935 bytes, 6 tensors)

block1.weight f4 [64, 3, 9, 9]
0	0x3d36aaa4	0.04459633
1	0x3c923263	0.017846292
2	0x3b1e1a98	0.0024124738
3	0x3cab91fd	0.020943636
4	0x3d40c9eb	0.047067564
5	0x3d579f89	0.05264238
6	0xbd03cbab	-0.032176655
7	0x3ccf6446	0.025316369
8	0x3c934974	0.017979361
9	0x3d0b209e	0.033966653
10	0x3ce7f757	0.028316183
11	0xbaf179e4	-0.0018423167
12	0xbd29a6e1	-0.041418914
13	0x3d6fbad4	0.058527783
14	0xbd0b7a70	-0.034052312
15	0xbd43acd0	-0.04777223
16	0x3d551575	0.052022416
17	0x3ade97e8	0.0016982527
18	0xbbd26e01	-0.006421805
19	0xbc744dfa	-0.014911169
20	0x3d842742	0.064528
21	0x3c81ab3f	0.015828727
22	0x3cd3d8d7	0.025860233
23	0xbd07f237	-0.03318998
24	0x3d636eb7	0.055525508
25	0x3ce8f683	0.028437858
26	0x3d70d082	0.0587926
27	0x3d511d15	0.051053125
28	0xbd2bbee9	-0.041930113
29	0x3d5e018b	0.05420069
30	0xbd7e4c26	-0.06208434
31	0x3b22eb22	0.0024859388
32	0x3cdb3d05	0.026762495
33	0xbd4ea788	-0.05045274
34	0x3cfefc59	0.031126188
35	0x3b2987c2	0.0025868271
36	0x3c0a7e84	0.008453015
37	0x3cf9583d	0.030437583
38	0x3d267986	0.040643238
39	0xbcbe6d27	-0.023245407
40	0xbd1cb4df	-0.03825843
41	0xbd621de8	-0.055204302
42	0x3d799ee4	0.060942546
43	0xbd3f5133	-0.046708297
44	0x3cfc8ae6	0.03082795
45	0x3d6395ce	0.055562787
46	0x3d40e7cb	0.047096055
47	0x3d117e84	0.035521045
48	0xbba03fac	-0.004890403
49	0xbcfed600	-0.031107903
50	0xbbea4562	-0.0071493844
51	0x3ce27c0f	0.027647046
52	0x3d10e7ff	0.0353775
53	0xbd1ea802	-0.038734443
54	0x3b52db0b	0.0032174017
55	0x3cb53c2b	0.022123417
56	0xbd00ffec	-0.031494066
57	0x3d7b112f	0.061295684
58	0x3d62f2e7	0.05540743
59	0xbd7acd1e	-0.06123077
60	0x3c3b0cd2	0.011416631
61	0xbc816be7	-0.015798522
62	0xbd016058	-0.03158602
63	0xbd59d4cd	-0.05318146
64	0x3d6d18f9	0.057885144
65	0x3c78fa17	0.015196345
66	0x3a91b5cd	0.0011116803
67	0x3cd06793	0.025440013
68	0x3cc89e96	0.024489682
69	0x3d5a4f80	0.053298473
70	0x3cd3f5e9	0.025874095
71	0x3cb9d26d	0.022683347
72	0x3d312740	0.043250322
73	0x3d3fadef	0.046796735
74	0xbd1374ee	-0.036000185
75	0xbcceb760	-0.025233924
76	0x3a5de6d8	0.00084648794
77	0x3c3bdc1b	0.011466051
78	0x3d047c20	0.032344937
79	0xbb87355c	-0.004126234
80	0xbd04c1d0	-0.032411397
81	0x3c823c11	0.015897783
82	0xbce18041	-0.027526977
83	0x3cad5566	0.021158885
84	0x3cf6e7e9	0.03013988
85	0x3aa1b1b9	0.0012336291
86	0x3cb9a181	0.022660019
87	0x3c9e77df	0.019344268
88	0xbd520aaa	-0.0512797
89	0xbcd6296e	-0.026142802
90	0x3cbbca7c	0.0229237
91	0x3d12f3f5	0.035877187
92	0x3c25059a	0.010072136
93	0x3c4a5c62	0.012351127
94	0xbd29d786	-0.041465305
95	0x3d48cece	0.04902535
96	0xbd096638	-0.03354475
97	0xbce982fd	-0.028504843
98	0xbcd91cde	-0.026503023
99	0xbc2e0ccc	-0.010623168
100	0xbb4ba1f8	-0.0031071883
101	0xbd3c284f	-0.04593688
102	0x3a561be2	0.0008167607
103	0x3d77964b	0.060446065
104	0x3d4f01f9	0.05053899
105	0xbd43cf17	-0.04780492
106	0xbb6907de	-0.0035557668
107	0x3d364d40	0.044507265
108	0xbc9db56f	-0.019251553
109	0xbd51fec9	-0.051268373
110	0xbcd982dd	-0.026551658
111	0x3cd4c4ac	0.025972687
112	0xbd3f26e8	-0.046667963
113	0x3c960f54	0.018317856
114	0x3d1b334e	0.037890725
115	0x3c7a2202	0.015266897
116	0xbd802cc8	-0.06258541
117	0x3c677404	0.014126781
118	0xbbba687c	-0.005688725
119	0xbb80da08	-0.0039322414
120	0xbc916921	-0.017750325
121	0xbc46df08	-0.012138136
122	0xbd66bf83	-0.056334984
123	0x3d77d712	0.06050784
124	0x3bfaf314	0.0076583717
125	0xbd335de1	-0.0437907
126	0xbc99d66e	-0.018779006
127	0x3c9d7943	0.019222861
128	0x3d306719	0.04306707
129	0x3d211ee7	0.03933611
130	0xbce655b8	-0.028117046
131	0xbd1ad64e	-0.037802033
132	0xbc5bb4ba	-0.013409788
133	0xbd0f8a62	-0.03504408
134	0xbd425234	-0.047441676
135	0xbd77df26	-0.060515545
136	0x3beb62f8	0.007183429
137	0x3b72dd68	0.0037058238
138	0xbd7d5833	-0.06185169
139	0xbd7db7e9	-0.06194297
140	0x3ca3b339	0.019982921
141	0xbceff333	-0.029290771
142	0x3b5a7af4	0.0033337446
143	0x3d84282e	0.06452976
144	0x3d0f54ec	0.034993097
145	0x3ccfc72c	0.025363527
146	0x3d5129eb	0.051065367
147	0xbd0b66e4	-0.03403367
148	0xbd513290	-0.05107361
149	0xbb9f4975	-0.0048610517
150	0x3d761b9f	0.060084935
151	0x38dc0d75	0.00010492924
152	0x3d333084	0.04374744
153	0x3d0982da	0.033572055
154	0x3cc5469c	0.02408152
155	0xbd3a7fc3	-0.045532
156	0xbd7beb74	-0.061503842
157	0xbd418b8a	-0.047252215
158	0xbd46096f	-0.04834884
159	0x3b5a6783	0.0033325858
160	0x3d104b8c	0.035228297
161	0x3c4ad1b3	0.012379098
162	0x3d271544	0.040791765
163	0x3d8341d4	0.0640904
164	0xbc5649ed	-0.013079149
165	0xbd744805	-0.059638996
166	0xbd7fc483	-0.062443268
167	0x3c83bb38	0.016080484
168	0xbcad61d3	-0.02116481
169	0xba8f9865	-0.0010955451
170	0x3b3d32ce	0.0028869393
171	0x3a579cdf	0.0008224975
172	0xbc9a63a9	-0.01884635
173	0xbcaf770d	-0.021419073
174	0x3d19c75b	0.037543636
175	0xbd1786c8	-0.03699377
176	0x3c316eaf	0.010829612
177	0xbc8bd5ee	-0.017069783
178	0xbd349e88	-0.0440965
179	0x3cc776e8	0.024348691
180	0x3d189173	0.037248086
181	0x3b5f5414	0.0034077214
182	0x3d84e05a	0.06488104
183	0x3c670645	0.014100616
184	0xbcabb92c	-0.02096232
185	0xbd486cd6	-0.04893192
186	0x3d54d733	0.051963042
187	0xbd59bb63	-0.05315722
188	0xbc747395	-0.014920135
189	0x3cbfd4ea	0.023416955
190	0xbbe57439	-0.00700238
191	0xbd257a3d	-0.04039978
192	0xbd5dd443	-0.054157507
193	0x3d3f4dd8	0.046705097
194	0xbd11a035	-0.035553176
195	0x3b6fe7c2	0.0036606644
196	0x3c4b4127	0.01240567
197	0x3ce46acc	0.027882956
198	0xbd6eead7	-0.05832943
199	0xbcf2d6f3	-0.029643511
200	0xbd3f6a7d	-0.046732415
201	0x3d3cdbc4	0.046108022
202	0x3d0778ad	0.03307407
203	0xbce1e6fe	-0.027575966
204	0xbc056e2c	-0.008143943
205	0xbc18a41e	-0.009316472
206	0x3d7a8b0e	0.06116777
207	0xbd36bdcb	-0.044614594
208	0xbc4157cc	-0.011800718
209	0x3d5f3c1c	0.054500684
210	0xbc817ee4	-0.015807576
211	0xbd7c9d6a	-0.06167356
212	0xbccd1cbd	-0.025038118
213	0x3d70297f	0.058633324
214	0xbce85115	-0.028358975
215	0x3d372e23	0.044721734
216	0xbd71368f	-0.05888992
217	0xbd5290a0	-0.051407456
218	0x3d61d7ad	0.055137325
219	0x3d8077d5	0.06272856
220	0x3cd7d155	0.026344934
221	0x3d7e8b61	0.06214464
222	0x3d67771b	0.056510072
223	0x3d64b299	0.055834386
224	0xbd4c65ec	-0.049901888
225	0x3d71e05b	0.059051853
226	0x3d52332b	0.05131833
227	0xbd5b717a	-0.053575017
228	0x3cd717b7	0.026256425
229	0xbc86b984	-0.016445883
230	0xbb546c7c	-0.0032413295
231	0xbd13895b	-0.036019664
232	0x3d760373	0.060061883
233	0xbd0aba36	-0.03386899
234	0x3c28013a	0.010254199
235	0x3cdfaf05	0.027305136
236	0x3d58828e	0.05285888
237	0x3c573a65	0.013136481
238	0x3c38ff56	0.011291346
239	0x3cf65321	0.030068936
240	0xbc8e4262	-0.017365638
241	0x3d82e079	0.06390471
242	0x3d18101b	0.037124734
243	0xbcce1c02	-0.02515984
244	0xbcfa38b3	-0.030544614
245	0x3d0d9da2	0.03457416
246	0x3d89831b	0.067144595
247	0xbc483d00	-0.012221575
248	0x3b921772	0.0044583613
249	0xbd3c6ae8	-0.04600039
250	0x3d3e4ce5	0.04646005
251	0x3cb8577c	0.022502653
252	0x3c862c93	0.016378677
253	0x3d22f271	0.03978199
254	0x3be65251	0.007028856
255	0x3cf338ac	0.02969011

block1.bias f4 [64]
0	0xbcbd406e	-0.023102012
1	0xbcf31987	-0.029675258
2	0x3b4f6758	0.003164729
3	0xbc5eb11a	-0.013592029
4	0x3d7693e2	0.060199626
5	0x3d66fa4f	0.056391057
6	0x3c987f1e	0.018615302
7	0xbcc24065	-0.023712346
8	0xbc3ba243	-0.01145226
9	0xbcabe06f	-0.020981042
10	0x3cacf630	0.021113485
11	0x3c472b0e	0.012156261
12	0xbd712dd3	-0.058881592
13	0xbc2bdf02	-0.010490181
14	0x3cae23a8	0.021257237
15	0xbd47e8f3	-0.048806142
16	0xbcc20ac8	-0.023686782
17	0x3d61aee7	0.05509844
18	0x3d723c14	0.059139326
19	0xbd0d9f7e	-0.03457593
20	0xbc64997a	-0.013952607
21	0xbd2aa9db	-0.041665893
22	0xbc5963df	-0.01326844
23	0x3d894aee	0.06703745
24	0x3d790b5a	0.06080184
25	0xbcc2d453	-0.023782885
26	0x3d67c35b	0.05658279
27	0xbd1b3f92	-0.037902422
28	0xbd67ad7d	-0.056561936
29	0x3d7f4026	0.062317036
30	0x3d566832	0.052345462
31	0x3bba1212	0.0056784237
32	0xbcf67622	-0.030085627
33	0xbd477331	-0.04869384
34	0xbd50ff88	-0.051024944
35	0xbd6bc7ef	-0.05756372
36	0xbd25a18c	-0.040437266
37	0x3d62c830	0.055366695
38	0x3d7752b8	0.06038162
39	0x3d71ca4e	0.059030823
40	0xbba652be	-0.0050757816
41	0x3d5e3dc7	0.054258134
42	0x3d709b9c	0.05874215
43	0xbd46e674	-0.04855962
44	0x3d7dcb9b	0.06196175
45	0x3d22f653	0.039785694
46	0xbd399c0f	-0.045314845
47	0x3d71526d	0.058916498
48	0x3d4025ac	0.046910927
49	0xbd5a1d08	-0.053250343
50	0xbd0fece6	-0.035138033
51	0x3c90eb89	0.017690437
52	0x3ab1ab90	0.0013555158
53	0xbc426cc5	-0.011866753
54	0xbcf0bffe	-0.029388424
55	0xbc1fa034	-0.009742785
56	0x3d0ce7ac	0.034400627
57	0x3d1effa8	0.03881803
58	0x3ce9646f	0.028490273
59	0xbc8eb907	-0.017422212
60	0x3cf03df7	0.029326422
61	0xbcc30fd5	-0.02381126
62	0xbd2af1da	-0.041734554
63	0xbb8d40a9	-0.0043106866

block2.weight f4 [32, 64, 5, 5]
0	0xbc5a12e2	-0.013310166
1	0xbc941231	-0.01807508
2	0x3c04fdb4	0.008117128
3	0x3c990efc	0.018683903
4	0xbc49480e	-0.012285246
5	0xbc9a781b	-0.018856099
6	0x3ae5c094	0.0017528706
7	0xbba317ed	-0.0049772174
8	0xbc526521	-0.012841494
9	0xbcbc8b0c	-0.023015521
10	0x3c93943a	0.018015016
11	0x38082501	3.245939e-05
12	0xbc146957	-0.009058318
13	0x3c070dc0	0.008243024
14	0x3c5105b1	0.012757705
15	0xbcc880f0	-0.024475545
16	0xba4cd824	-0.000781419
17	0x3c04de2e	0.008109612
18	0xbca2661f	-0.019824086
19	0x3c2f2522	0.0106900055
20	0x3c86e25f	0.016465364
21	0xbc6294a9	-0.013829389
22	0x3bdc3a30	0.0067208037
23	0x39b83067	0.00035131277
24	0x3cb38a1e	0.021916445
25	0xbc62a3d4	-0.013833005
26	0x3c80e049	0.015731947
27	0xbc5bbf70	-0.0134123415
28	0x3c6f9d76	0.014624944
29	0xb9525431	-0.00020058524
30	0xbcba9c4c	-0.022779606
31	0x3bbc63c5	0.005749198
32	0xbcbd3d01	-0.023100378
33	0x3b82e267	0.0039942744
34	0x3bbe6421	0.005810276
35	0xbc8cb7f9	-0.017177569
36	0xbc831a61	-0.01600379
37	0xbcd68a52	-0.026189003
38	0xbc1b2ea3	-0.009471568
39	0x3c4e9325	0.012608324
40	0x3c217377	0.009854189
41	0x3c983b09	0.018582838
42	0xbb8b5145	-0.0042516314
43	0x3ca34954	0.019932427
44	0xbc40b7e5	-0.011762594
45	0x3c91ccec	0.01779791
46	0xbc9f2cef	-0.019430606
47	0x3b87d010	0.004144676
48	0xbc81755b	-0.01580303
49	0xbc0b2a05	-0.008493905
50	0x3c956b1d	0.018239552
51	0xbca282f5	-0.019837836
52	0x3c79e1d3	0.015251595
53	0xbc1b00c5	-0.009460633
54	0xbb7f1daa	-0.0038927593
55	0x3c181283	0.009281757
56	0xbc928f79	-0.017890679
57	0xbc7875ee	-0.015164835
58	0xbc6ca693	-0.014444011
59	0xbb7c36ad	-0.0038484738
60	0xbc06e329	-0.00823287
61	0x3c81c77c	0.015842192
62	0xbb810855	-0.003937761
63	0xbc4948d6	-0.012285432
64	0xbca7e753	-0.020496046
65	0xbc9bd779	-0.019023644
66	0xbc1a45a9	-0.009416022
67	0x3cad8eb3	0.021186208
68	0x3be4e652	0.006985464
69	0x3ca2e92e	0.01988658
70	0xbc812ca5	-0.015768358
71	0x3c0d8221	0.008636982
72	0xbc85468f	-0.016268997
73	0x3c0ec290	0.0087133795
74	0xbb03204c	-0.0020008264
75	0x3c62bf10	0.013839498
76	0xbc2479f9	-0.010038846
77	0xbb499978	-0.003076164
78	0xba461239	-0.0007555816
79	0x3c9b1633	0.018931484
80	0x3bed5479	0.007242736
81	0xbc7f74ff	-0.015591859
82	0xbcd5ea06	-0.026112568
83	0xbccf9437	-0.025339229
84	0xbcc07389	-0.023492591
85	0x3b689140	0.0035486966
86	0xbcab3ed1	-0.020903977
87	0xbbbe129e	-0.005800559
88	0x3c591e5a	0.013251865
89	0x3c92925c	0.017892055
90	0x3cabd4dc	0.020975523
91	0x3c8264b2	0.015917156
92	0xbc63877b	-0.0138872815
93	0xbb794906	-0.003803791
94	0xbc880754	-0.016605057
95	0xbcd254dd	-0.025675232
96	0x3c9601db	0.018311432
97	0x3c297e55	0.010345061
98	0xbc90b981	-0.01766658
99	0xbc686fe3	-0.014186832
100	0xbc81f878	-0.01586555
101	0x3b0c0b17	0.0021368915
102	0x3c122da1	0.008922012
103	0xbc2f667c	-0.0107055865
104	0x3c265079	0.010151022
105	0x3c8861f3	0.016648268
106	0x3a8dee59	0.001082848
107	0xbcbb7828	-0.022884443
108	0x3ca5c97e	0.02023768
109	0x3cbb52d2	0.02286664
110	0xbc83c924	-0.016087122
111	0x3c3382b5	0.010956456
112	0xbcc5f1e9	-0.024163203
113	0xbb9f2c8b	-0.004857605
114	0x3c50b36b	0.012738089
115	0xbae00a53	-0.0017092921
116	0xbc1ea346	-0.009682482
117	0xbc09d43b	-0.008412416
118	0x3b365ee1	0.0027827548
119	0xbc6c0b88	-0.014407046
120	0xbcce872c	-0.02521094
121	0xbc23172b	-0.009954254
122	0xbc87269e	-0.016497906
123	0xbc916bcb	-0.017751595
124	0xbc987e6f	-0.018614976
125	0xbb7684c1	-0.0037615749
126	0x3c27877c	0.010225173
127	0xbc1561b3	-0.009117532
128	0xbc02b786	-0.007978326
129	0xbc7b998a	-0.015356431
130	0x3cae0df1	0.021246882
131	0xbb0b8266	-0.002128744
132	0x3bf56e96	0.0074899895
133	0x3c8d981b	0.017284444
134	0x38d5bd83	0.00010191931
135	0x3cbba689	0.022906559
136	0x3c92001b	0.017822316
137	0xbb7cc8c5	-0.0038571816
138	0x3cbca2f6	0.023026925
139	0xbac93e53	-0.0015353657
140	0xbc243f22	-0.010024818
141	0x3b902c06	0.0043997793
142	0x3c181e0d	0.009284508
143	0xbca115d7	-0.019663734
144	0x3c832126	0.016007017
145	0x3c5478db	0.012968267
146	0xbcb6cbfc	-0.022314064
147	0x3cb3778f	0.021907596
148	0xbc058abd	-0.008150754
149	0xbc247524	-0.010037694
150	0x3c734061	0.014846892
151	0xbc960db5	-0.018317083
152	0x3b7a183b	0.0038161415
153	0x3b85d5ad	0.00408431
154	0x3c874865	0.016514013
155	0xbc439132	-0.011936473
156	0xba402c3b	-0.00073308096
157	0xbc8aa072	-0.01692221
158	0x3ca36e01	0.019949915
159	0x3caa2147	0.020767821
160	0x3bc7fda1	0.006103233
161	0xbcb3f33b	-0.021966567
162	0xbc974205	-0.018464098
163	0x3c0aa0bc	0.008461174
164	0xbccbc8ef	-0.024876086
165	0x3c82c18e	0.015961435
166	0xbc041469	-0.008061507
167	0xbbfcc1a5	-0.007713514
168	0x3c9810e6	0.018562745
169	0xbcb6f98f	-0.022335796
170	0xbc69254f	-0.0142300865
171	0xbc537449	-0.0129061425
172	0xbc7bb234	-0.015362311
173	0xbcc19553	-0.023630774
174	0x3bb126a6	0.0054062186
175	0x3bedd1b0	0.0072576627
176	0x3c940dc7	0.018072976
177	0x3c3e8b24	0.011629853
178	0xbc21a610	-0.009866253
179	0x3b97b161	0.0046292995
180	0xbb93a06c	-0.0045052078
181	0xbb957821	-0.0045614396
182	0x3c364122	0.011123927
183	0xbc8a82f4	-0.016908146
184	0xbcbe1be3	-0.023206657
185	0x3cafa1c2	0.021439437
186	0xbbf664d9	-0.007519346
187	0xbc592a7d	-0.013254759
188	0xbc7deee7	-0.015498853
189	0x3c5e4c4a	0.013567993
190	0xbbc98f0d	-0.006151086
191	0x3c7e19ff	0.015509128
192	0xbc76b8d6	-0.015058717
193	0x3c9f0b05	0.019414434
194	0x3cad0920	0.021122515
195	0xba86dfaf	-0.0010290052
196	0x3c7ffe8b	0.015624653
197	0x3c4eb50e	0.012616409
198	0x3bc06184	0.005871
199	0xbcae6377	-0.021287663
200	0x3c6beaa4	0.014399204
201	0xbc7a95f0	-0.015294537
202	0xbb97b892	-0.004630157
203	0x3c8857de	0.01664346
204	0x3b9fa32f	0.004871748
205	0xbadfd9a2	-0.001707841
206	0xbaf1a1d8	-0.0018435074
207	0xbcb97dcb	-0.02264299
208	0x3c85d845	0.016338477
209	0x386d8e41	5.6637688e-05
210	0x3ca762b7	0.020432813
211	0xbc83cfb7	-0.016090257
212	0xbc6a7a7e	-0.014311431
213	0xbcc214e9	-0.023691611
214	0xbca5f7c8	-0.020259753
215	0xbc7b4897	-0.015337131
216	0x3c9ba45d	0.018999273
217	0x3c4ab432	0.0123720635
218	0x3c640c36	0.013918927
219	0x3c8113fc	0.0157566
220	0x3c374ab5	0.011187245
221	0xbb7eadff	-0.0038861034
222	0xbc894573	-0.016756749
223	0xbcc44ced	-0.023962462
224	0x3b29fc4c	0.0025937734
225	0x3c947bc3	0.01812542
226	0xbcb7a6c6	-0.022418391
227	0x3c47b0cb	0.012188147
228	0xbcbb8de4	-0.022894807
229	0x3c26d805	0.010183339
230	0x3caa2d9b	0.0207737
231	0xbbac3070	-0.0052547976
232	0x3a060ffc	0.0005114076
233	0x3c91c45b	0.017793825
234	0xbcbe6bd0	-0.023244768
235	0xbc874bd1	-0.016515644
236	0x3c301106	0.010746246
237	0xbcc72c03	-0.024312979
238	0x3b7af0b8	0.0038290452
239	0x3c46bc2f	0.012129827
240	0xbc26445e	-0.010148136
241	0xbc702a5c	-0.014658537
242	0x3b4cc3e6	0.0031244694
243	0x3bf97482	0.0076127658
244	0x3bbd5b94	0.005778739
245	0xbc9dd72c	-0.019267641
246	0xbaace4dc	-0.0013190764
247	0xbcc89650	-0.024485737
248	0xbc9e402a	-0.019317705
249	0x3ca361e9	0.019944148
250	0x3c97e969	0.018543916
251	0x3b98e18f	0.0046655606
252	0x3c8db2d3	0.017297184
253	0x3c88867a	0.016665686
254	0x3c618af0	0.013766035
255	0x3b4764ad	0.0030424998

block2.bias f4 [32]
0	0x3c3324a6	0.010934031
1	0xbba24332	-0.004951858
2	0x3c88c64a	0.016696114
3	0x3c7b8e7b	0.015353794
4	0x3be1292a	0.006871362
5	0xbbcd7b35	-0.006270791
6	0x3c9cdec9	0.019149201
7	0xbcaed2b1	-0.0213407
8	0x3cbf8570	0.023379058
9	0xbc10391c	-0.008802678
10	0xbb0f30b9	-0.002184911
11	0xbbb687a3	-0.0055703684
12	0x3bd9ae09	0.006643061
13	0xbbadf55d	-0.0053087906
14	0xbc515cc1	-0.012778462
15	0xbc9b0d49	-0.018927233
16	0xbbc6101c	-0.006044401
17	0x3c9aab74	0.018880583
18	0xbc8f2f3e	-0.017478582
19	0xbb2cc007	-0.0026359574
20	0x3cafb607	0.021449102
21	0xbc208ff6	-0.009799948
22	0x3a1170dc	0.00055481284
23	0x3cb1312a	0.021629889
24	0xbb305b1e	-0.0026909779
25	0xbcce6c35	-0.025198082
26	0xbc3e649b	-0.011620666
27	0xb9a136b5	-0.00030749073
28	0x3ccd90be	0.025093433
29	0x3caf1ea7	0.02137692
30	0x3c45d528	0.012074746
31	0xbcb5c325	-0.022187779

block3.weight f4 [3, 32, 5, 5]
0	0xbc5f2f3a	-0.0136220995
1	0x3c6716f0	0.01410459
2	0x3c55dc96	0.01305308
3	0x3c925318	0.017861888
4	0xbbef46d5	-0.007302145
5	0xbcef01f8	-0.029175743
6	0xbc42b098	-0.011882924
7	0xbd0b1884	-0.033958927
8	0x3bde8e37	0.0067918557
9	0x3c1d0358	0.009583317
10	0xbc56462c	-0.013078254
11	0x3c533132	0.012890147
12	0xb9ecffd0	-0.00045204023
13	0xbcc1076a	-0.023563106
14	0x3c2651da	0.010151351
15	0x3c936c9f	0.01799613
16	0xbc2c4e14	-0.010516662
17	0x3cb95423	0.022623127
18	0xbd038246	-0.03210666
19	0xba129ebf	-0.0005593113
20	0xbcc9b8e4	-0.024624296
21	0x3c56d292	0.013111727
22	0x3a324a45	0.0006801228
23	0xbb90b591	-0.0044161757
24	0xbced6a5b	-0.028981378
25	0xb9884ad2	-0.00025995687
26	0x3d22cdec	0.039747164
27	0x3c60038f	0.013672723
28	0xbc9fb7d8	-0.019496843
29	0x3c63f04c	0.013912272
30	0xbce749d3	-0.028233444
31	0x3c90a440	0.017656446
32	0x3cfe867e	0.03106999
33	0x3bf38d09	0.007432584
34	0xbcbe8c72	-0.023260329
35	0x3cbf41cd	0.023346806
36	0xbc213c10	-0.00984098
37	0xbcb604a2	-0.022219006
38	0xbd00fbd8	-0.031490177
39	0xbd092fb1	-0.033492748
40	0xbbfa778c	-0.0076436456
41	0x3ceceec1	0.02892244
42	0x3b83bf2c	0.004020592
43	0xbd1dbf70	-0.038512647
44	0xbb192bd4	-0.002337207
45	0xbc8839ca	-0.016629118
46	0xbd0309e1	-0.031991843
47	0xbbc7f437	-0.0061021107
48	0xbc97a1ac	-0.018509708
49	0xbc3193e8	-0.010838486
50	0x3c638fd2	0.01388927
51	0xbcaa627d	-0.020798916
52	0x3d13bdfb	0.03606985
53	0xbb9d5c0d	-0.004802233
54	0xbbdbbd79	-0.0067059365
55	0xbc29a440	-0.010354102
56	0x3cbfc6e7	0.023410274
57	0x3cf9dda0	0.030501187
58	0xbbd05c05	-0.006358626
59	0x3ccc48f2	0.024937127
60	0x3ce9ffb8	0.028564319
61	0xbbd45e53	-0.006480971
62	0x3c1a25b1	0.0094084
63	0x3cb8ee9d	0.022574717
64	0x3d09db89	0.03365663
65	0x3b1cf66b	0.0023950587
66	0xbc8b3561	-0.016993226
67	0x3b73c47d	0.0037195974
68	0xbca60d4c	-0.020270012
69	0x3cdc43ae	0.026887741
70	0x3c870b69	0.016484933
71	0x3a7e218d	0.00096943305
72	0x3cd2846e	0.025697913
73	0x3cfbaf6c	0.030723296
74	0x3bb81f7e	0.0056189885
75	0x3cf7195d	0.030163461
76	0xbcceaabf	-0.025227902
77	0xbcf2f533	-0.029657936
78	0xbc57d5f0	-0.013173565
79	0xbc51aa2f	-0.012796923
80	0xbc00a72a	-0.007852355
81	0x3a725291	0.0009243871
82	0x3d0215e0	0.031759143
83	0x3a0ba992	0.0005327697
84	0x3ce9d799	0.028545188
85	0x3bb1c40e	0.005424983
86	0xbc1d5061	-0.009601683
87	0x3ce47d9c	0.027891926
88	0xbbab34b6	-0.0052247895
89	0xbbe558a0	-0.0069990903
90	0x3c8dd361	0.017312707
91	0xbd020ae7	-0.03174868
92	0x3d10373a	0.03520892
93	0x3c66e92b	0.0140936775
94	0x3c8529af	0.016255228
95	0xbd053924	-0.032525197
96	0x3c068344	0.008210007
97	0xbbe68936	-0.0070354
98	0x3c0fbd2b	0.0087731285
99	0xbcc771f7	-0.024346335
100	0x3d10c8e5	0.035347838
101	0xbc33b3e9	-0.010968187
102	0x3cc4055c	0.023928337
103	0xbc6f63c0	-0.014611185
104	0xbc5b8d5a	-0.0134004
105	0x3cbb8655	0.022891203
106	0x3c928722	0.017886702
107	0x3be3f0aa	0.0069561796
108	0x3c147e28	0.009063281
109	0x3b1d96ea	0.002404625
110	0x3cb2c438	0.02182208
111	0xbd00528c	-0.031328723
112	0x3d137a74	0.036005452
113	0xbc7864fe	-0.015160797
114	0x3c87d1f6	0.01657961
115	0x3d091c14	0.033474043
116	0xbbd369d8	-0.0064518265
117	0x3d0d814c	0.034547135
118	0xbca9ba00	-0.020718575
119	0x3bcb41e5	0.0062029236
120	0xbc803ac7	-0.015653027
121	0xbbb08815	-0.005387316
122	0x3d156017	0.03646859
123	0x3c930d2c	0.017950617
124	0x3cccf573	0.025019383
125	0x3c5be613	0.013421553
126	0x3d29aedb	0.04142652
127	0x3ccb30a4	0.024803467
128	0x3cbf8183	0.023377186
129	0xbbf954ca	-0.0076089846
130	0x3cb3f55c	0.021967582
131	0xbb2ba7f8	-0.0026192646
132	0xbc651a91	-0.013983385
133	0xbc305430	-0.010762259
134	0x3c91a7fc	0.017780297
135	0xbb1aba9a	-0.0023609758
136	0x3cd5ffd7	0.02612297
137	0x3cacbc63	0.021085924
138	0xbd03a303	-0.032137882
139	0xbd12f216	-0.035875402
140	0x3c48215c	0.012214985
141	0xba78e4ab	-0.00094945234
142	0xbb881af2	-0.0041536028
143	0xbd12917f	-0.035783287
144	0xbd0694d6	-0.032856785
145	0xbb641cd2	-0.0034807217
146	0x3c35020f	0.011047854
147	0x3c6dbc7b	0.014510269
148	0x3cb7e1bc	0.022446506
149	0xbbb6a819	-0.005574238
150	0x3ced6594	0.0289791
151	0x3d02a34e	0.03189402
152	0xbc9c59d2	-0.019085798
153	0x3cb014bc	0.021494262
154	0xbbb376e4	-0.0054768194
155	0xbcb08320	-0.0215469
156	0x3c8f792d	0.017513836
157	0x3d0f6364	0.035006896
158	0x3c9231e3	0.017846053
159	0x3c194be6	0.0093564745
160	0xbc5c3b34	-0.0134418495
161	0x3cec6d1c	0.028860621
162	0x3d10ce1d	0.035352815
163	0xbb529c0b	-0.0032136466
164	0x3cc98d5b	0.024603536
165	0x3c65385f	0.013990491
166	0xbcc7ddfd	-0.024397844
167	0x3c4e0c3a	0.012576157
168	0x3b20680a	0.0024476075
169	0xbc83ec72	-0.016103957
170	0xbc844886	-0.016147863
171	0x3c308776	0.010774484
172	0x3d045363	0.032306086
173	0x3c57aad7	0.01316329
174	0xbbeefbd6	-0.007293205
175	0xbd1f2414	-0.038852766
176	0x3c4e713f	0.012600242
177	0xbd0b5d0b	-0.03402428
178	0x3c815fb1	0.0157927
179	0x3cf16e4f	0.029471545
180	0xbd1945a1	-0.03741992
181	0xbd26e3fb	-0.040744763
182	0xbc7d34dc	-0.015454497
183	0x3cc7570d	0.024333501
184	0x3d27c77f	0.04096174
185	0x3cd64e09	0.026160257
186	0x3b368630	0.0027850978
187	0x3d23b996	0.03997191
188	0x3d5cccfd	0.05390643
189	0x3c9a8c1d	0.01886564
190	0x3c707377	0.014675966
191	0x3c90d84f	0.017681269
192	0x3bdeddc2	0.006801338
193	0xbb400549	-0.0029300025
194	0xbc88a5ae	-0.016680565
195	0xbcdca6cd	-0.026935006
196	0xbd19332f	-0.037402328
197	0xbc903dba	-0.017607559
198	0xbbab8c27	-0.0052352133
199	0xbcaf9c1e	-0.021436747
200	0xbd062b4d	-0.03275614
201	0x3b1db135	0.0024061922
202	0xbd04858a	-0.032353915
203	0xbbe49041	-0.006975204
204	0xbca7da25	-0.020489762
205	0x3c8895b6	0.01667295
206	0xbbe220e1	-0.006900892
207	0xbd08e993	-0.03342588
208	0x3c13573d	0.008992967
209	0x3c4a516a	0.012348512
210	0xbd01180e	-0.03151708
211	0x3b6f73b6	0.0036537475
212	0xbafbf520	-0.0019222833
213	0xbcebbc3a	-0.028776277
214	0xbc991af2	-0.018689606
215	0xbd086eda	-0.03330884
216	0xbc8415eb	-0.016123733
217	0x3cf0a9b1	0.02937779
218	0xbd11d49f	-0.035603162
219	0x3c3e338e	0.011608971
220	0xbd09f31b	-0.03367911
221	0xbcba63ad	-0.022752607
222	0x3cfc6ee7	0.030814601
223	0x3b16b1a3	0.0022994063
224	0xbd164c64	-0.036693946
225	0xbc4964f7	-0.012292138
226	0x3b21e42f	0.0024702658
227	0x3c13e5ee	0.0090269875
228	0x3ca26d75	0.019827584
229	0x3d13e1b0	0.036103904
230	0xbb0f712a	-0.002188752
231	0x3cf16a20	0.02946955
232	0x3cfd3d3c	0.030912988
233	0x3d0acff3	0.033889722
234	0xbcba2d6a	-0.022726733
235	0xbd00859f	-0.03137743
236	0x3cbb3a09	0.022854822
237	0xbc995b90	-0.018720418
238	0x3ca0c8d3	0.01962701
239	0x3baa0683	0.0051887645
240	0x3d018c87	0.031628158
241	0xbc03f517	-0.008054039
242	0x3ce11fbf	0.027480958
243	0xbc1e4bb6	-0.009661606
244	0xbbd29fb0	-0.0064277276
245	0x3d14af50	0.036300004
246	0x3c969da4	0.018385716
247	0xbc90fc3f	-0.017698405
248	0xbc6cca00	-0.014452457
249	0xbc846813	-0.016162908
250	0x3bfb0158	0.0076600723
251	0xbbab9551	-0.0052363058
252	0xbcbbf704	-0.022944935
253	0x3cac17e5	0.021007488
254	0xba4c3521	-0.0007789899
255	0x3c11e73a	0.008905226

block3.bias f4 [3]
0	0xbbc1395a	-0.0058967294
1	0x3bb5ded0	0.005550243
2	0x3ccd3bba	0.025052894
